Random seed = 1984
Training data shape:(6148,2153)
Test data shape:(2045,2153)
graph_mat shape:(2153,5)
_________________________________________________________________
Layer (type)                 Output Shape              Param #   
=================================================================
graph_conv_1 (GraphConv)     (None, 2153, 10)          60        
_________________________________________________________________
dropout_1 (Dropout)          (None, 2153, 10)          0         
_________________________________________________________________
flatten_1 (Flatten)          (None, 21530)             0         
_________________________________________________________________
dense_1 (Dense)              (None, 1)                 21531     
_________________________________________________________________
dropout_2 (Dropout)          (None, 1)                 0         
=================================================================
Total params: 21,591
Trainable params: 21,591
Non-trainable params: 0
_________________________________________________________________
Epoch: 0, R squared: 0.10809
Epoch: 1, R squared: 0.12738
Epoch: 2, R squared: 0.14607
Epoch: 3, R squared: 0.16567
Epoch: 4, R squared: 0.17999
Epoch: 5, R squared: 0.19249
Epoch: 6, R squared: 0.20323
…
